…
ochs=1)\n</code></pre> <pre><code>Model: \"model_1\"\n__________________________________________________________________________________________________\n Layer (type)                   Output Shape         Param #     Connected to                     \n==================================================================================================\n Displacement (InputLayer)      [(None, 1)]          0           []\n\n Horsepower (InputLayer)        [(None, 1)]          0           []\n\n Weight (InputLayer)            [(None, 1)]          0           []\n\n mono_dense_Displacement_decrea  (None, 4)           8           ['Displacement[0][0]']           \n sing (MonoDense)\n\n mono_dense_Horsepower_decreasi  (None, 4)           8           ['Horsepower[0][0]']             \n ng (MonoDense)\n\n mono_dense_Weight_decreasing (  (None, 4)           8           ['Weight[0][0]']                 \n MonoDense)\n\n Acceleration (InputLayer)      [(None, 1)]          0           []\n\n Cylinders (InputLayer)         [(None, 1)]          0           []\n\n Model_Year (InputLayer)        [(None, 1)]          0           []\n\n Origin (InputLayer)            [(None, 1)]          0           []\n\n concat_mono (Concatenate)      (None, 12)           0           ['mono_dense_Displacement_decreas\n                                                                 ing[0][0]',                      \n                                                                  'mono_dense_Horsepower_decreasin\n                                                                 g[0][0]',                        \n                                                                  'mono_dense_Weight_decreasing[0]\n                                                                 [0]']\n\n concat_non_mono (Concatenate)  (None, 4)            0           ['Acceleration[0][0]',           \n                                                                  'Cylinders[0][0]',              \n                                                                  'Model_Year[0][0]',             \n                                                                  'Origin[0][0]']\n\n dropout (Dropout)              (None, 12)           0           ['concat_mono[0][0]']\n\n non_mono_dense_0 (Dense)       (None, 16)           80          ['concat_non_mono[0][0]']\n\n concat_preprocess (Concatenate  (None, 28)          0           ['dropout[0][0]',                \n )                                                                'non_mono_dense_0[0][0]']\n\n mono_dense_0 (MonoDense)       (None, 16)           464         ['concat_preprocess[0][0]']\n\n dropout_2 (Dropout)            (None, 16)           0           ['mono_dense_0[0][0]']\n\n mono_dense_1_increasing (MonoD  (None, 16)          272         ['dropout_2[0][0]']              \n ense)\n\n dropout_3 (Dropout)            (None, 16)           0           ['mono_dense_1_increasing[0][0]']\n\n mono_dense_2_increasing (MonoD  (None, 1)           17          ['dropout_3[0][0]']              \n ense)\n\n==================================================================================================\nTotal params: 857\nTrainable params: 857\nNon-trainable params: 0\n__________________________________________________________________________________________________\n40/40 [==============================] - 3s 11ms/step - loss: 191.5380 - mse: 
…
onotonicity_indicator == 1).all()\nfor mono_layer in mono_layers[1:]:\n    assert (mono_layer.monotonicity_indicator == 1).all()\n\nfor mono_layer in mono_layers[:-1]:\n    assert mono_layer.org_activation == \"elu\"\nassert mono_layers[-1].org_activation == None\n</code></pre> <pre><code>Model: \"model_1\"\n_________________________________________________________________\n Layer (type)                Output Shape              Param #   \n=================================================================\n input_2 (InputLayer)        [(None, 5, 7, 8)]         0\n\n mono_dense_0 (MonoDense)    (None, 5, 7, 16)          144\n\n dropout (Dropout)           (None, 5, 7, 16)          0\n\n mono_dense_1_increasing (Mo  (None, 5, 7, 16)         272       \n noDense)\n\n dropout_1 (Dropout)         (None, 5, 7, 16)          0\n\n mono_dense_2_increasing (Mo  (None, 5, 7, 16)         272       \n noDense)\n\n dropout_2 (Dropout)         (None, 5, 7, 16)          0\n\n mono_dense_3_increasing (Mo  (None, 5, 7, 3)          51        \n noDense)\n\n=================================================================\nTotal params: 739\nTrainable params: 739\nNon-trainable params: 0\n_________________________________________________________________\n</code></pre> <pre><code>inputs = Input(name=\"a\", shape=(1, ))\nparam = 0\n\nactual = _prepare_mono_input_n_param(inputs, param)\nexpected = [inputs], [0], [\"inputs\"]\nasse
…
__________________________________________________________________________________\n Layer (type)                   Output Shape         Param #     Connected to                     \n==================================================================================================\n a (InputLayer)                 [(None, 1)]          0           []\n\n b (InputLayer)                 [(None, 1)]          0           []\n\n c (InputLayer)                 [(None, 1)]          0           []\n\n d (InputLayer)                 [(None, 1)]          0           []\n\n concatenate (Concatenate)      (None, 4)            0           ['a[0][0]',                      \n                                                                  'b[0][0]',                      \n                                                                  'c[0][0]',                      \n                                                                  'd[0][0]']\n\n mono_dense_0_convex (MonoDense  (None, 64)          320         ['concatenate[0][0]']            \n )\n\n dropout_3 (Dropout)            (None, 64)           0           ['mono_dense_0_convex[0][0]']\n\n mono_dense_1_increasing_convex  (None, 64)          4160        ['dropout_3[0][0]']              \n  (MonoDense)\n\n dropout_4 (Dropout)            (None, 64)           0           ['mono_dense_1_increasing_convex[\n                                                                 0][0]']\n\n mono_dense_2_increasing_convex  (None, 64)          4160        ['dropout_4[0][0]']              \n  (MonoDense)\n\n dropout_5 (Dropout)            (None, 64)           0           ['mono_dense_2_increasing_convex[\n                                                                 0][0]']\n\n mono_dense_3_increasing_convex  (None, 10)          650         ['dropout_5[0][0]']              \n  (MonoDense)\n\n tf.nn.softmax (TFOpLambda)     (None, 10)           0           ['mono_dense_3_increasing_convex[\n                                                                 0][0]']\n\n==================================================================================================\nTotal params: 9,290\nTrainable params: 9,290\nNon-trainable params: 0\n__________________________________________________________________________________________________\n</code>
…
_________________________________________________________________________________\n Layer (type)                   Output Shape         Param #     Connected to                     \n==================================================================================================\n a (InputLayer)                 [(None, 1)]          0           []\n\n c (InputLayer)                 [(None, 1)]          0           []\n\n b (InputLayer)                 [(None, 1)]          0           []\n\n d (InputLayer)                 [(None, 1)]          0           []\n\n mono_dense_a_increasing_convex  (None, 8)           16          ['a[0][0]']                      \n  (MonoDense)\n\n mono_dense_c_decreasing (MonoD  (None, 8)           16          ['c[0][0]']                      \n ense)\n\n concat_non_mono (Concatenate)  (None, 2)            0           ['b[0][0]',                      \n                                                                  'd[0][0]']\n\n concat_mono (Concatenate)      (None, 16)           0           ['mono_dense_a_increasing_convex[\n                                                                 0][0]',                          \n                                                                  'mono_dense_c_decreasing[0][0]']\n\n non_mono_dense_0 (Dense)       (None, 32)           96          ['concat_non_mono[0][0]']\n\n concat_preprocess (Concatenate  (None, 48)          0           ['concat_mono[0][0]',            \n )                                                                'non_mono_dense_0[0][0]']\n\n mono_dense_0_convex (MonoDense  (None, 32)          1568        ['concat_preprocess[0][0]']      \n )\n\n mono_dense_1_increasing_convex  (None, 32)          1056        ['mono_dense_0_convex[0][0]']    \n  (MonoDense)\n\n mono_dense_2_increasing_convex  (None, 32)          1056        ['mono_dense_1_increasing_convex[\n  (MonoDense)                                                    0][0]']\n\n mono_dense_3_increasing_convex  (None, 10)          330         ['mono_dense_2_increasing_convex[\n  (MonoDense)                                                    0][0]']\n\n==================================================================================================\nTotal params: 4,138\nTrainable params: 4,138\nNon-trainable params: 0\n__________________________________________________________________________________________________\n*********
…
*************************************************************************************\n\ndropout=True\n\nModel: \"model_4\"\n__________________________________________________________________________________________________\n Layer (type)                   Output Shape         Param #     Connected to                     \n==================================================================================================\n a (InputLayer)                 [(None, 1)]          0           []\n\n c (InputLayer)                 [(None, 1)]          0           []\n\n mono_dense_a_increasing_convex  (None, 8)           16          ['a[0][0]']                      \n  (MonoDense)\n\n mono_dense_c_decreasing (MonoD  (None, 8)           16          ['c[0][0]']                      \n ense)\n\n b (InputLayer)                 [(None, 1)]          0           []\n\n d (InputLayer)                 [(None, 1)]          0           []\n\n concat_mono (Concatenate)      (None, 16)           0           ['mono_dense_a_increasing_convex[\n                                                                 0][0]',                          \n                                                                  'mono_dense_c_decreasing[0][0]']\n\n concat_non_mono (Concatenate)  (None, 2)            0           ['b[0][0]',                      \n                                                                  'd[0][0]']\n\n dropout_6 (Dropout)            (None, 16)           0           ['concat_mono[0][0]']\n\n non_mono_dense_0 (Dense)       (None, 32)           96          ['concat_non_mono[0][0]']\n\n concat_preprocess (Concatenate  (None, 48)          0           ['dropout_6[0][0]',              \n )                                                                'non_mono_dense_0[0][0]']\n\n mono_dense_0_convex (MonoDense  (None, 32)          1568        ['concat_preprocess[0][0]']      \n )\n\n dropout_8 (Dropout)            (None, 32)           0           ['mono_dense_0_convex[0][0]']\n\n mono_dense_1_increasing_convex  (None, 32)          1056        ['dropout_8[0][0]']              \n  (MonoDense)\n\n dropout_9 (Dropout)            (None, 32)           0           ['mono_dense_1_increasing_convex[\n                                                                 0][0]']\n\n mono_dense_2_increasing_convex  (None, 32)          1056        ['dropout_9[0][0]']              \n  (MonoDense)\n\n dropout_10 (Dropout)           (None, 32)           0           ['mono_dense_2_increasing_convex[\n                                                                 0][0]']\n\n mono_dense_3_increasing_convex  (None, 10)          330         ['dropout_10[0][0]']             \n  (MonoDense)\n\n==================================================================================================\nTotal params: 4,138\nTrainable params: 4,138\nNon-trainable params: 0\n__________________________________________________________________________________________________\n</code></pre>"},{"location":"SUMMARY/","title":"SUMMARY","text":"<ul
…
